Assets/ML-Agents/NNModels/Agent-3000242.onnx (onnx, 162387 bytes, 10 tensors)

74 f4 [172]
0.44702518 0.00057732686 0.44702536 0.32714885 0.44557273 0.00057732686 0.4455729 0.31913215
0.45004094 0.00057732686 0.4500412 0.33141303 0.43415833 0.00057732686 0.43415844 0.30861253
0.45855796 0.00057732686 0.4585581 0.33968997 0.43889937 0.00057732686 0.43889952 0.30389994
0.47015193 0.00057732686 0.47015196 0.34762603 0.4343834 0.00057732686 0.4343834 0.29650608
0.47843546 0.00057732686 0.47843552 0.35064647 0.42899707 0.00057732686 0.42899728 0.28548846
0.48156896 0.00057732686 0.48156908 0.34750593 0.42267907 0.00057732686 0.4226793 0.27491814
0.48419014 0.00057732686 0.48419023 0.34082988 0.43118036 0.00057732686 0.43118057 0.274337
0.48212528 0.00057732686 0.48212534 0.3322776 0.42166948 0.00057732686 0.4216697 0.2664423
0.47404137 0.00057732686 0.47404137 0.31851962 0.4175457 0.00057732686 0.41754583 0.26163188
0.47135097 0.00057732686 0.47135118 0.30624 0.41266018 0.00057732686 0.41266036 0.26387084
0.46675768 0.00057732686 0.46675774 0.29625782 0.42170852 0.00057732686 0.42170873 0.27121934
0.4604122 0.00057732686 0.4604124 0.28707346 0.4239514 0.00057732686 0.42395142 0.2778416
0.43270472 0.00057732686 0.43270496 0.27224457 0.4090856 0.00057732686 0.40908578 0.27740633
0.4227174 0.00057732686 0.4227176 0.2656991 0.4124993 0.00057732686 0.41249955 0.280168
0.4169323 0.00057732686 0.41693246 0.27148372 0.40494093 0.00057732686 0.40494102 0.27966714
0.4165277 0.00057732686 0.41652793 0.28086758 0.40583122 0.00057732686 0.40583143 0.2821821
0.41542125 0.00057732686 0.4154215 0.28689334 0.39826274 0.00057732686 0.398263 0.2814713
0.40737578 0.00057732686 0.4073761 0.28586772 0.39599922 0.00057732686 0.3959995 0.28126484
0.39696583 0.00057732686 0.3969661 0.28241873 0.3973404 0.00057732686 0.39734057 0.28395167
0.3941393 0.00057732686 0.39413953 0.28447518 0.40185255 0.00057732686 0.4018528 0.28819746
0.40232265 0.00057732686 0.40232286 0.2894379 7.072724 0.0006454676 3.1146498 0.00057732686
0.33674264 0.00057732686 0.27445933 7.0777645
00000000: 7ce0 e43e c057 173a 82e0 e43e 0e80 a73e
00000010: 1c22 e43e c057 173a 2222 e43e 4a65 a33e
00000020: c46b e63e c057 173a cd6b e63e f8ae a93e
00000030: 004a de3e c057 173a 044a de3e 7602 9e3e
00000040: 1cc8 ea3e c057 173a 21c8 ea3e d8eb ad3e
00000050: 6bb7 e03e c057 173a 70b7 e03e c698 9b3e
00000060: c1b7 f03e c057 173a c2b7 f03e 0afc b13e
00000070: 8067 de3e c057 173a 8067 de3e a5cf 973e
00000080: 7ef5 f43e c057 173a 80f5 f43e ef87 b33e
00000090: 81a5 db3e c057 173a 88a5 db3e 8b2b 923e
000000a0: 3590 f63e c057 173a 3990 f63e 4cec b13e
000000b0: 6469 d83e c057 173a 6c69 d83e 12c2 8c3e
000000c0: c5e7 f73e c057 173a c8e7 f73e 4181 ae3e
000000d0: acc3 dc3e c057 173a b3c3 dc3e e675 8c3e
000000e0: 20d9 f63e c057 173a 22d9 f63e 4a20 aa3e
000000f0: 10e5 d73e c057 173a 17e5 d73e 206b 883e
00000100: 8db5 f23e c057 173a 8db5 f23e 0115 a33e
00000110: 8dc8 d53e c057 173a 91c8 d53e 9df4 853e
00000120: ea54 f13e c057 173a f154 f13e 7dcb 9c3e
00000130: 3248 d33e c057 173a 3848 d33e 141a 873e
00000140: ddfa ee3e c057 173a dffa ee3e 1baf 973e
00000150: 2eea d73e c057 173a 35ea d73e 43dd 8a3e
00000160: 26bb eb3e c057 173a 2dbb eb3e 4bfb 923e
00000170: 2810 d93e c057 173a 2910 d93e 4141 8e3e
00000180: 798b dd3e c057 173a 818b dd3e a463 8b3e
00000190: ab73 d13e c057 173a b173 d13e 3408 8e3e
000001a0: 6a6e d83e c057 173a 716e d83e b609 883e
000001b0: 1c33 d33e c057 173a 2433 d33e 2e72 8f3e
000001c0: 2778 d53e c057 173a 2c78 d53e eaff 8a3e
000001d0: 6b54 cf3e c057 173a 6e54 cf3e 8830 8f3e
000001e0: 1e43 d53e c057 173a 2643 d53e e0cd 8f3e
000001f0: 1cc9 cf3e c057 173a 23c9 cf3e 2c7a 903e
00000200: 18b2 d43e c057 173a 20b2 d43e afe3 923e
00000210: 18e9 cb3e c057 173a 21e9 cb3e 021d 903e
00000220: 8f93 d03e c057 173a 9a93 d03e 415d 923e
00000230: 69c0 ca3e c057 173a 72c0 ca3e f201 903e
00000240: 1b3f cb3e c057 173a 243f cb3e 3099 903e
00000250: 3370 cb3e c057 173a 3970 cb3e 1d62 913e
00000260: a0cc c93e c057 173a a8cc c93e bba6 913e
00000270: 9ebf cd3e c057 173a a6bf cd3e 9e8e 933e
00000280: 3cfd cd3e c057 173a 43fd cd3e 3431 943e
00000290: c153 e240 9934 293a 6c56 4740 c057 173a
000002a0: 8869 ac3e c057 173a ef85 8c3e 0c7d e240

action_model._discrete_distribution.branches.0.bias f4 [3]
-0.06022216 0.0964486 -0.04330045
00000000: 83ab 76bd d886 c53d d05b 31bd

action_model._discrete_distribution.branches.0.weight f4 [3, 128]
0.0053841784 -0.04945371 -0.0862674 0.026021289 0.100700304 0.033044722 -0.018936798 0.02957153
-0.050032225 0.008160561 0.05101916 0.04675298 -0.019810474 -0.002861347 0.13455513 0.045873668
-0.036436398 0.15311764 0.090500206 0.10850987 -0.00523727 -0.027416838 -0.06914147 -0.009216512
-0.06721496 0.014099405 -0.018001173 -0.032649774 -0.081810854 -0.04826814 -0.054664694 0.007837586
0.12313514 0.021264577 0.0084205065 -0.05714312 -0.08421683 -0.050375536 0.007925793 0.07428623
-0.12140955 0.042366747 -0.044251144 0.07278981 0.028939482 -0.0107260775 0.12568307 -0.004191869
0.0064405473 -0.028284617 0.06453244 -0.07660308 -0.056858003 0.04212901 -0.06560885 -0.08764441
0.06477142 -0.016725851 -0.10539621 -0.05685207 -0.008788605 0.109527074 0.035961226 0.060626723
-0.043378565 0.04298742 -0.08702535 -0.013848681 0.040571753 -0.08443419 0.024348967 -0.057196483
-0.0005798557 -0.0007938281 0.00766942 -0.06629265 -0.08339386 -0.018789854 0.010320287 -0.06657196
0.050632667 -0.08145398 0.06568112 0.19181195 0.010916949 -0.02081131 -0.019928161 -0.06693115
-0.0004914568 -0.027839964 -0.053939156 -0.046264615 -0.08573397 0.06436599 -0.078169376 0.01605407
0.05889171 -0.07722055 -0.06544911 0.026618522 -0.07650233 -0.032489445 -0.08280328 -0.035942625
-0.055254426 -0.013324104 -0.16272613 -0.09193855 0.019357027 0.044316713 0.07952343 0.044392344
-0.02061494 0.0013674671 0.01581407 -0.03773816 0.028702825 0.12808515 -0.10963713 0.12159683
0.0346406 -0.079683475 -0.0364614 -0.04083423 -0.019345844 -0.07054548 0.06328008 0.0024786608
0.11251195 -0.09124924 0.09337182 0.08740094 -0.23257513 0.07752665 0.12583107 -0.1074704
0.13232484 -0.022251798 0.0939654 -0.04866944 0.08062427 0.048082538 -0.1328318 -0.06689698
0.09026704 -0.08574334 -0.007476665 -0.13661818 -0.0016920499 0.08145941 -0.025756093 0.08753426
0.09200337 0.037726965 -0.03355039 0.10505772 -0.09571219 -0.05014855 0.01949159 0.10012188
-0.010694214 0.0888138 0.10960904 0.14795615 -0.012692478 0.09876583 0.11980343 -0.059464894
0.14716363 -0.076370634 -0.068206094 -0.04896364 0.08358354 0.08158677 -0.10449927 0.05067517
0.09016829 0.017345874 0.017001012 0.069571875 -0.03363617 -0.010783069 0.09450933 -0.040588208
-0.093613625 0.021412628 -0.027325457 -0.13924183 -0.0095706 0.010425976 -0.06805232 -0.08650021
0.116461866 -0.060104143 0.092964776 0.0216126 -0.07615658 0.18793327 0.070915096 0.04659807
0.11557847 0.027812164 -0.0698537 0.14688374 -0.0154859545 -0.1140418 -0.015432476 -0.08995559
-0.03672773 0.043825466 -0.06731739 -0.16117582 0.06344116 0.019025417 0.1603797 -0.09096193
-0.029182578 0.09135216 0.031505518 -0.006412602 0.10293516 -0.046167575 -0.088302456 -0.042549375
0.060342092 0.07911983 0.00034200578 -0.10957272 0.011052336 -0.11780528 0.08019035 0.14719611
0.09395209 -0.014351908 0.12817167 0.17103644 -0.015172764 -0.010711415 -0.039070442 0.06788276
-0.016752046 -0.02219736 0.07104486 0.07410662 -0.09881155 -0.09205042 0.10530674 0.0005457155
0.00024080162 0.15267183 0.063643485 -0.048105888 0.14035374 0.056444433 -0.09340515 -0.016624492
00000000: c36d b03b f98f 4abd f6ac b0bd 992a d53c
00000010: f63b ce3d e759 073d 5821 9bbc fe3f f23c
00000020: 97ee 4cbd e0b3 053c 77f9 503d 0e80 3f3d
00000030: 9349 a2bc 7085 3bbb d2c8 093e 07e6 3b3d
00000040: 553e 15bd dfca 1c3e 2c58 b93d 6c3a de3d
00000050: 689d abbb 4799 e0bc 0b9a 8dbd da00 17bc
00000060: ffa7 89bd 3101 673c 3277 93bc c5bb 05bd
00000070: 738c a7bd d0b4 45bd 16e8 5fbd 3869 003c
00000080: 472e fc3d 0d33 ae3c 2af6 093c e70e 6abd
00000090: e079 acbd 9456 4ebd 2fdb 013c 6123 983d
000000a0: 92a5 f8bd c188 2d3d b040 35bd d312 953d
000000b0: 7e12 ed3c 6ebc 2fbc 10b3 003e f25b 89bb
000000c0: 3a0b d33b 24b5 e7bc 9529 843d 13e2 9cbd
000000d0: f0e3 68bd 788f 2c3d ef5d 86bd ea7e b3bd
000000e0: e1a6 843d a704 89bc f8d9 d7bd b7dd 68bd
000000f0: 15fe 0fbc bb4f e03d 144c 133d ba53 783d
00000100: b9ad 31bd 9413 303d 593a b2bd 94e5 62bc
00000110: 912e 263d d5eb acbd 7c77 c73c dc46 6abd
00000120: 7501 18ba e718 50ba c24f fb3b 71c4 87bd
00000130: 66ca aabd 2eed 99bc 6c16 293c e156 88bd
00000140: 3364 4f3d 58d1 a6bd d383 863d 5a6a 443e
00000150: 01dd 323c 7b7c aabc 6240 a3bc 3313 89bd
00000160: 1cd5 00ba a310 e4bc 4eef 5cbd f77f 3dbd
00000170: 4b95 afbd 51d2 833d 4417 a0bd d383 833c
00000180: 6f38 713d cf25 9ebd 2f0a 86bd 160f da3c
00000190: 41ad 9cbd a713 05bd c494 a9bd 9338 13bd
000001a0: 7752 62bd 584d 5abc aea1 26be 474a bcbd
000001b0: a192 9e3c 7185 353d 2edd a23d bfd4 353d
000001c0: aae0 a8bc 953c b33a 828c 813c 5493 1abd
000001d0: 3022 eb3c c128 033e 6e89 e0bd c207 f93d
000001e0: 4de3 0d3d 1731 a3bd 8d58 15bd cb41 27bd
000001f0: 2d7b 9ebc 267a 90bd fd98 813d 0771 223b
00000200: aa6c e63d e2e0 babd ba39 bf3d 44ff b23d
00000210: 2d28 6ebe 4bc6 9e3d dcd9 003e 7119 dcbd
00000220: 2a80 073e 6749 b6bc ee70 c03d 9b59 47bd
00000230: 561e a53d 32f2 443d 0f05 08be 4901 89bd
00000240: eddd b83d 349a afbd d0fe f4bb a3e5 0bbe
00000250: c6c7 ddba 31d4 a63d 71fe d2bc 2945 b33d
00000260: 436c bc3d 9787 1a3d 226c 09bd 8028 d73d
00000270: c104 c4bd 9168 4dbd d4ac 9f3c b30c cd3d
00000280: c936 2fbc 02e4 b53d b47a e03d d181 173e
00000290: 1cf4 4fbc bd45 ca3d 805b f53d 7691 73bd
000002a0: 10b2 163e 3568 9cbd a3af 8bbd 198e 48bd
000002b0: d92d ab3d f716 a73d b703 d6bd c490 4f3d
000002c0: 27aa b83d ef18 8e3c b545 8b3c b37b 8e3d
000002d0: 15c6 09bd 78ab 30bc 1c8e c13d d23f 26bd
000002e0: 80b8 bfbd 8969 af3c a3d9 dfbc 6995 0ebe
000002f0: 02ce 1cbc b6d1 2a3c 045f 8bbd 0627 b1bd
00000300: 8f83 ee3d c32f 76bd 5164 be3d e80c b13c
00000310: fbf7 9bbd 9471 403e ef3b 913d 9edd 3e3d
00000320: 68b4 ec3d 56d6 e33c 750f 8fbd b168 163e
00000330: cdb8 7dbc bf8e e9bd 7fd8 7cbc a33a b8bd
00000340: d16f 16bd 5582 333d b3dd 89bd 460b 25be
00000350: 70ed 813d 31db 9b3c 933a 243e 404a babd
00000360: 4d10 efbc d716 bb3d ee0b 013d ce20 d2bb
00000370: abcf d23d 361a 3dbd ebd7 b4bd 4148 2ebd
00000380: 4529 773d 9409 a23d 3d4f b339 aa67 e0bd
00000390: db14 353c e543 f1bd d73a a43d 94ba 163e
000003a0: f469 c03d 4424 6bbc 6f3f 033e 2d24 2f3e
000003b0: 2f97 78bc ee7e 2fbc 5408 20bd 1e06 8b3d
000003c0: 963b 89bc 3dd7 b5bc f87f 913d 36c5 973d
000003d0: b65d cabd ee84 bcbd 0fab d73d 590e 0f3a
000003e0: b17f 7c39 0156 1c3e 8457 823d ae0a 45bd
000003f0: e4b8 0f3e 4732 673d 334b bfbd 1630 88bc

action_model._discrete_distribution.branches.1.bias f4 [3]
-0.035277247 0.029148083 0.0051546264
00000000: e07e 10bd f6c7 ee3c 24e8 a83b

action_model._discrete_distribution.branches.1.weight f4 [3, 128]
0.018453851 0.038730018 -0.023913715 0.05689242 0.053868696 -0.04911408 -0.005850553 -0.047806848
0.049808305 -0.007985723 0.12919177 -0.013507823 0.015491225 0.06268869 0.13248831 0.026006414
0.00041628644 -0.058886584 -0.048750862 0.03257689 -0.018827401 -0.020283276 -0.06838772 -0.04371456
0.03195816 -0.14254643 -0.10079641 0.10521883 -0.0595935 0.005622873 -0.17052805 -0.06622272
0.12958787 0.026926924 0.023967514 -0.053861983 0.015067408 -0.107771024 0.08098316 -0.06635515
-0.0014691707 -0.09089561 0.077646814 -0.2086295 -0.22873734 0.11984061 0.08055836 0.027343186
0.05980237 -0.12343895 0.0077268984 -0.014948095 0.008511829 0.033801336 -0.05007082 -0.053749185
-0.08510878 -0.13094401 0.11696345 0.07231715 -0.031844135 0.15978724 -0.033685457 0.020414794
-0.034021635 0.20933644 0.10209514 0.0047785426 -0.038619585 0.002504218 0.006141441 -0.085626826
0.08982197 0.10435759 0.023354579 0.21241291 -0.04329117 0.06350585 0.006196686 0.073900335
-0.014773128 -0.0006592686 -0.13442133 -0.011896144 0.0009028219 0.07548887 -0.14775325 -0.08156764
-0.040022515 -0.17516065 -0.056408707 0.058405343 -0.059323132 -0.08439337 -0.0034609726 0.03541858
0.06115514 -0.07565938 0.094505645 -0.09352662 -0.05021212 0.090139925 0.16830309 0.096300855
0.10519166 -0.087211624 0.014753245 -0.018307041 0.010722668 0.044219468 0.10962021 0.12249536
-0.08352609 -0.01815261 0.034098648 -0.031452637 -0.016798804 0.035263583 0.049176883 0.07710976
0.052741274 0.020219691 0.041917216 -0.106240645 0.08614327 -0.059545383 0.0046458608 0.08736245
0.039872404 0.002889075 0.07427513 -0.032766696 -0.019719174 0.0043485085 0.044229068 0.06314934
-0.14239861 0.07370762 -0.11433635 -0.03541171 0.08071566 -0.118240535 -0.0061225346 -0.18225552
-0.02782078 -0.003593667 0.17444964 0.06670463 -0.03802084 -0.075704075 0.11968188 0.005425499
-0.008623918 0.14509302 0.16086712 0.00659514 0.03508657 0.035276316 0.06656549 0.08987701
-0.014890375 -0.019602882 -0.033594057 -0.0017781554 -0.045162555 0.07259539 -0.1718768 0.039191622
0.0034448614 0.017728511 0.00856267 0.11498297 0.10080727 -0.024465794 -0.15966702 -0.11126583
0.054201096 -0.0036861314 0.02195839 -0.062676005 0.03648545 -0.030373048 -0.065327935 0.07731375
-0.07153163 0.08830133 -0.064784355 -0.07332562 0.083687246 0.033007316 0.05309664 -0.045162592
0.05364744 -0.12048021 -0.11550573 -0.04298579 0.10049292 -0.13731056 -0.02981189 -0.05723338
-0.01609927 -0.06600217 -0.17055464 -0.06833517 -0.10424309 0.013031651 0.14019102 0.04449905
-0.037305247 0.020701809 0.12352588 -0.069273286 0.042968612 -0.12545979 0.14573048 0.07248609
-0.02966881 0.05307006 -0.1037793 0.022296894 0.06385774 0.0060211513 -0.021398468 0.12827846
-0.06761085 -0.07012447 0.011064481 0.08444155 0.0695471 0.049070995 -0.18218544 -0.082274534
-0.11544316 0.07566276 -0.054224584 0.007555096 -0.097734004 0.09802637 -0.17411755 -0.037791632
0.11930776 -0.061537452 -0.029935157 0.107340574 -0.0026950068 0.20009524 0.00064322096 -0.13277629
-0.13147327 -0.07119384 -0.010826311 0.07672422 -0.024332099 0.11014906 0.033387844 -0.096244186
00000000: 882c 973c 5ea3 1e3d b2e6 c3bc 0708 693d
00000010: 6ca5 5c3d d82b 49bd ffb5 bfbb 1dd1 43bd
00000020: cb03 4c3d 8dd6 02bc d94a 043e eb4f 5dbc
00000030: e8ce 7d3c ee62 803d 04ab 073e 670b d53c
00000040: 0541 da39 0f33 71bd fcae 47bd 586f 053d
00000050: ec3b 9abc 1d29 a6bc dc0e 8cbd 0a0e 33bd
00000060: 8fe6 023d b1f7 11be 596e cebd f87c d73d
00000070: 5018 74bd 1440 b83b e89e 2ebe c79f 87bd
00000080: afb2 043e da95 dc3c 8557 c43c 629e 5cbd
00000090: 4add 763c 0eb7 dcbd 80da a53d 35e5 87bd
000000a0: 3091 c0ba 7a27 babd 4b05 9f3d f9a2 55be
000000b0: 1f3a 6abe fe6e f53d c8fb a43d d1fe df3c
000000c0: 54f3 743d 8fcd fcbd ec31 fd3b dbe8 74bc
000000d0: 3375 0b3c 4573 0a3d 0f17 4dbd 1b28 5cbd
000000e0: 834d aebd 3016 06be 898a ef3d 041b 943d
000000f0: ff6e 02bd 449f 233e c3f9 09bd ed3c a73c
00000100: 455a 0bbd 4b5c 563e 4217 d13d 5295 9c3b
00000110: 922f 1ebd ce1d 243b 243e c93b 1e5d afbd
00000120: 95f4 b73d 6fb9 d53d 1a52 bf3c c582 593e
00000130: 1552 31bd 5b0f 823d 920d cb3b 0f59 973d
00000140: fd0a 72bc c4d2 2cba bfa5 09be 0be8 42bc
00000150: 5aab 6c3a e999 9a3d a14c 17be ef0c a7bd
00000160: a6ee 23bd 505d 33be d10c 67bd 713a 6f3d
00000170: d0fc 72bd 6ed6 acbd 7cd1 62bb 1313 113d
00000180: d07d 7a3d 4ef3 9abd 2d8c c13d e28a bfbd
00000190: 39ab 4dbd 489b b83d a557 2c3e 6239 c53d
000001a0: ba6e d73d 029c b2bd 98b7 713c a6f8 95bc
000001b0: 21ae 2f3c 791f 353d 9080 e03d d9de fa3d
000001c0: ba0f abbd c8b4 94bc 06ab 0b3d 7bd4 00bd
000001d0: a59d 89bc 8c70 103d b36d 493d b9eb 9d3d
000001e0: 3c07 583d c4a3 a53c 63b1 2b3d b294 d9bd
000001f0: e26b b03d dce5 73bd 4e3c 983b 16eb b23d
00000200: 3f51 233d a356 3d3b 8f1d 983d 5f36 06bd
00000210: 1b8a a1bc ef7d 8e3b 8a29 353d 7154 813d
00000220: f1d0 11be 05f4 963d 2d29 eabd df0b 11bd
00000230: 404e a53d 1828 f2bd 8b9f c8bb 31a1 3abe
00000240: 68e8 e3bc ba83 6bbb eda2 323e 709c 883d
00000250: bebb 1bbd bd0a 9bbd c61b f53d 62c8 b13b
00000260: 554b 0dbc 4493 143e 5aba 243e 0b1c d83b
00000270: efb6 0f3d e67d 103d 7d53 883d 7011 b83d
00000280: c2f6 73bc 3996 a0bc ec99 09bd ff10 e9ba
00000290: 5ffc 38bd e4ac 943d 7900 30be 6587 203d
000002a0: 2fc3 613b 623b 913c 714a 0c3c 317c eb3d
000002b0: 0b74 ce3d 7d6c c8bc c07f 23be 57df e3bd
000002c0: f801 5e3d 0693 71bb 15e2 b33c 475c 80bd
000002d0: c471 153d e6d0 f8bc a7ca 85bd ac56 9e3d
000002e0: 2d7f 92bd 54d7 b43d a9ad 84bd be2b 96bd
000002f0: 3864 ab3d ae32 073d dd7b 593d 69fc 38bd
00000300: 6bbd 5b3d 54be f6bd 458e ecbd de11 30bd
00000310: 3bcf cd3d 249b 0cbe 1138 f4bc 8c6d 6abd
00000320: 9ee2 83bc 252c 87bd e0a5 2ebe 4ff3 8bbd
00000330: 677d d5bd b582 553c 3c8e 0f3e a344 363d
00000340: 63cd 18bd d796 a93c 23fb fc3d 27df 8dbd
00000350: dbff 2f3d 8878 00be 5f3a 153e 9673 943d
00000360: 010c f3bc fe5f 593d 3e8a d4bd faa7 b63c
00000370: d9c7 823d 144d c53b d74b afbc 6e5b 033e
00000380: 8f77 8abd 6b9d 8fbd cc47 353c b1ef ac3d
00000390: b66e 8e3d abfe 483d d28e 3abe 8d7f a8bd
000003a0: 776d ecbd 14f5 9a3d 991a 5ebd bd90 f73b
000003b0: c428 c8bd 0dc2 c83d df4b 32be 66cb 1abd
000003c0: a057 f43d b20e 7cbd 933a f5bc 60d5 db3d
000003d0: b69e 30bb c4e5 4c3e d49d 283a 82f6 07be
000003e0: eea0 06be 13ce 91bd d760 31bc 9621 9d3d
000003f0: 1c54 c7bc d595 e13d b1c1 083d ac1b c5bd

network_body.linear_encoder.seq_layers.0.bias f4 [128]
-0.030806802 0.0070298617 -0.054780103 0.07166583 0.038988084 -0.025808204 0.029512595 0.067720555
0.021026066 0.038353547 0.0324006 0.004691471 0.0038012755 -0.030011078 0.11284403 0.031021232
0.05456674 0.10323349 -0.06651733 -0.004364611 0.0856827 0.015118304 -0.05367815 -0.021381281
-0.005259298 0.0524165 -0.010401837 0.028831098 -0.011439102 0.07313568 -0.026475845 -0.053152096
-0.025505384 0.07740483 0.035798863 -0.059682503 -0.024636883 0.0053395354 -0.0089544235 0.025902031
-0.01050412 0.06180613 0.0035195882 0.0030027092 -0.01043532 -0.008375067 0.0054410137 0.0918395
0.037979003 -0.005522588 0.033936247 0.034698408 0.07366097 0.029666414 0.013975778 -0.06152973
-0.005552922 -0.031470083 0.038290747 0.027778944 -0.045809876 -0.017634967 0.0133585045 0.015787922
-0.006882708 0.060734965 0.06272419 0.039401617 0.007369871 0.08670309 0.023392107 -0.027058482
0.06559075 -0.02734676 0.06464975 0.014934425 0.008058376 0.10112129 0.022980932 -0.017349899
0.04146508 0.03245547 -0.034426525 0.119773194 -0.01849199 0.025647724 0.022715306 0.14808948
-0.013878321 0.046569794 -0.0022313432 0.12206146 -0.013585683 0.04275882 0.027509179 0.017302675
-0.013402682 0.118077226 -0.031230032 0.07565581 0.016093168 0.038245708 0.024517948 -0.054556187
0.036198456 -0.047690663 -0.0055795326 -0.011234615 0.081806004 0.012184727 0.036707167 0.09413632
0.09995574 0.027303638 -0.03271825 -0.0034202258 0.0625123 -0.03438467 0.05388694 -0.067502044
-0.025482975 0.09304145 0.045241147 -0.001705472 -0.08531465 0.032363057 0.02328371 0.055295806
00000000: 8c5e fcbc c15a e63b 1a61 60bd 89c5 923d
00000010: f8b1 1f3d ba6b d3bc 66c4 f13c 13b1 8a3d
00000020: db3e ac3c 9c18 1d3d 7eb6 043d e9ba 993b
00000030: d21e 793b cbd9 f5bc c51a e73d 3d20 fe3c
00000040: 6081 5f3d 146c d33d 3d3a 88bd 0305 8fbb
00000050: 697a af3d c3b2 773c 9fdd 5bbd cc27 afbc
00000060: 3056 acbb afb2 563d 776c 2abc 322f ec3c
00000070: 126b 3bbc 29c8 953d dfe3 d8bc 03b6 59bd
00000080: abf0 d0bc 6c86 9e3d d4a1 123d a475 74bd
00000090: 4ad3 c9bc 45f7 ae3b 93b5 12bc 7f30 d43c
000000a0: 7919 2cbc 6d28 7d3d e4a8 663b 1ac9 443b
000000b0: e8f8 2abc 9437 09bc 884a b23b 5916 bc3d
000000c0: df8f 1b3d d3f6 b4bb bc00 0b3d eb1f 0e3d
000000d0: 90db 963d fb06 f33c a9fa 643c 9906 7cbd
000000e0: 49f5 b5bb c6e6 00bd c2d6 1c3d ab90 e33c
000000f0: 23a3 3bbd 3577 90bc a1dd 5a3c ac55 813c
00000100: 5788 e1bb 3ac5 783d 8a75 803d 9763 213d
00000110: f57e f13b 6491 b13d cea0 bf3c c0a9 ddbc
00000120: 7154 863d 5006 e0bc 1767 843d 85af 743c
00000130: 4707 043c ae18 cf3d 8242 bc3c 6021 8ebc
00000140: 4ad7 293d 07f0 043d d402 0dbd a64b f53d
00000150: 847c 97bc 2d1b d23c 7315 ba3c c5a4 173e
00000160: e661 63bc f8bf 3e3d ba3b 12bb 5cfb f93d
00000170: 7c96 5ebc df23 2f3d ee5a e13c 57be 8d3c
00000180: ec96 5bbc 79d2 f13d 20d6 ffbc 6ff1 9a3d
00000190: d2d5 833c 88a7 1c3d ddd9 c83c 4f76 5fbd
000001a0: d544 143d 4957 43bd 83d4 b6bb 6411 38bc
000001b0: e889 a73d 73a2 473c 415a 163d 8bca c03d
000001c0: 98b5 cc3d e1ab df3c 9203 06bd de25 60bb
000001d0: 7306 803d f1d6 0cbd 8db8 5c3d 833e 8abd
000001e0: acc1 d0bc 848c be3d c84e 393d 258a dfba
000001f0: 72b9 aebd 208f 043d 7bbd be3c db7d 623d

network_body.linear_encoder.seq_layers.0.weight f4 [128, 172]
0.16164824 0.045601513 0.02769764 -0.16899756 -0.042702198 -0.104273185 -0.043974917 -0.008989051
0.19549116 0.0278821 0.033341676 -0.048770647 -0.045585714 0.011126275 0.091348514 0.112556815
-0.08639345 -0.076851934 0.11598785 -0.05159042 0.13152313 -0.040954467 0.008499593 -0.1635574
-0.110640064 0.01586852 -0.13670667 0.05736255 0.051146545 0.05605859 -0.09167123 -0.14038503
0.06691679 0.06787792 -0.17374527 0.0021322581 -0.13653083 0.036618546 0.08386683 0.05004375
-0.1691688 -0.008976008 0.26619667 0.07834218 0.024316732 0.062397845 0.052048746 -0.06977434
-0.008823777 0.08454834 0.045500692 -0.01446198 0.1148332 0.0026586505 0.032671873 0.007214286
0.06941265 0.062650345 -0.13035539 -0.07254411 0.08850993 0.08739125 -0.017752467 -0.19512051
0.09383303 0.058641996 -0.09474008 0.06860943 -0.035543457 -0.005416212 0.08939089 0.15992449
-0.020644143 -0.030701727 -0.002009953 -0.10044336 0.022056248 0.048906248 0.036930423 0.060104523
-0.039742745 -0.059340943 -0.08954115 -0.23293468 0.0570928 0.09530305 0.26464933 0.15435411
0.031272076 -0.102502294 0.0030778998 -0.072981685 0.15143552 -0.03846846 -0.1523599 -0.048920065
0.18454656 0.18576129 -0.0073893755 -0.048494387 -0.06338605 0.03549169 -0.06620581 0.23253103
-0.015336317 -0.011569986 0.096478984 0.03867314 0.016265515 -0.078418426 0.14501798 0.026269538
-0.08464792 -0.05172186 -0.012602914 0.09857723 0.044125374 -0.0047773486 0.033061765 0.11121891
-0.06888093 0.0076881 0.023569766 0.033452474 -0.09475471 0.038280804 0.07880868 -0.08038866
-0.01028791 -0.015325099 0.08394941 -0.08036742 -0.072178714 0.013462988 0.0035983915 -0.093451075
0.2097846 -0.0045455275 -0.12811539 0.20575938 0.0860194 0.14769323 -0.0028227358 0.080927685
0.014050812 -0.003388817 0.08420908 0.0565191 -0.066563785 -0.09293979 -0.041526828 0.002778417
0.002060366 0.08157041 0.13674395 0.07454124 -0.055138443 -0.07342321 0.14056544 0.0035647776
-0.09185337 -0.036236223 0.049107008 0.28392613 0.090635665 -0.067637086 0.23629354 0.06361583
0.025584148 0.042349216 -0.04713054 -0.06469546 -0.06374417 -0.046018012 -0.009708589 0.040165838
0.022134542 0.09287969 0.14545268 0.098887585 0.08141965 -0.10855723 0.06655712 -0.097957216
-0.19765064 -0.11750849 0.2468509 0.1294037 -0.052423395 -0.041827086 0.24110734 -0.01545491
0.0433805 0.02404553 -0.015880374 0.09125034 0.06385505 -0.01608824 0.11430785 0.12341255
-0.06779167 0.07184917 0.0026143817 0.10311457 -0.042808305 -0.0648959 0.09110786 0.088575915
0.0071434905 -0.07435336 -0.12609844 -0.057745397 -0.014653853 -0.121984504 -0.011963433 -0.022058414
-0.21443486 -0.062376454 0.18498737 0.14832257 0.032685064 -0.03271342 -0.056840576 0.12951224
0.01679129 0.0482525 0.15513705 0.07810224 -0.07955954 -0.03755962 0.1851359 0.095038384
-0.1793668 0.11929644 0.19239284 0.115016036 -0.09157405 -0.064680874 0.16560549 0.1387421
-0.0056355014 -0.00111325 0.09650644 0.084618665 -0.061580963 0.10633188 -0.027318874 0.15144882
-0.028927037 -0.0056890473 0.1192363 -0.036444686 -0.14113663 -0.013709107 0.09263647 0.025170218
00000000: 1e87 253e a7c8 3a3d 29e6 e23c b20d 2dbe
00000010: 80e8 2ebd 2e8d d5bd 0b1f 34bd d046 13bc
00000020: d62e 483e 0069 e43c 4891 083d bbc3 47bd
00000030: 16b8 3abd fb4a 363c ee14 bb3d 3084 e63d
00000040: 0def b0bd 8c64 9dbd 0a8b ed3d 7a50 53bd
00000050: 00ae 063e dfbf 27bd e041 0b3c 977b 27be
00000060: 4297 e2bd b3fe 813c d5fc 0bbe fef4 6a3d
00000070: 0a7f 513d b19d 653d 20be bbbd 18c1 0fbe
00000080: ac0b 893d 9403 8b3d 48ea 31be 5bbd 0b3b
00000090: bdce 0bbe 54fd 153d 5fc2 ab3d adfa 4c3d
000000a0: 963a 2dbe 1b10 13bc ee4a 883e dd71 a03d
000000b0: e233 c73c e294 7f3d 1131 553d d9e5 8ebd
000000c0: 9a91 10bc ae27 ad3d ef5e 3a3d f1f1 6cbc
000000d0: ab2d eb3d c13c 2e3b f1d2 053d d165 ec3b
000000e0: 3828 8e3d d34e 803d e27b 05be 0292 94bd
000000f0: b244 b53d 2ffa b23d 9f6d 91bc accd 47be
00000100: 882b c03d 9732 703d 1607 c2bd 1a83 8c3d
00000110: 0496 11bd 7b7a b1bb 9212 b73d 3fc3 233e
00000120: e81d a9bc 3082 fbbc 6ab9 03bb 40b5 cdbd
00000130: 4eaf b43c eb51 483d 5b44 173d 2930 763d
00000140: 4ac9 22bd 7d0f 73bd 5a61 b7bd 6e86 6ebe
00000150: 24da 693d 3f2e c33d 1e80 873e 010f 1e3e
00000160: 2617 003d b9ec d1bd 97b6 493b 6c77 95bd
00000170: ea11 1b3e 1b91 1dbd 3c04 1cbe 6860 48bd
00000180: c6f9 3c3e 3538 3e3e 9322 f2bb 0da2 46bd
00000190: 8cd0 81bd bc5f 113d e996 87bd 9d1c 6e3e
000001a0: 2d45 7bbc 0a90 3dbc c696 c53d ba67 1e3d
000001b0: 423f 853c d799 a0bd 987f 143e 3733 d73c
000001c0: e45b adbd 4dda 53bd 747c 4ebc dce2 c93d
000001d0: cfbc 343d 4e8b 9cbb c66b 073d bdc6 e33d
000001e0: 7211 8dbd 75ec fb3b 6215 c13c 7605 093d
000001f0: c20e c2bd 55cc 1c3d 7266 a13d cfa2 a4bd
00000200: 9f8e 28bc 2016 7bbc abed ab3d ad97 a4bd
00000210: 6fd2 93bd dd93 5c3c fed2 6b3b 4763 bfbd
00000220: c6d1 563e a6f2 94bb ae30 03be 96b2 523e
00000230: f02a b03d e53c 173e a6fd 38bb 6abd a53d
00000240: 6135 663c ea16 5ebb cf75 ac3d 9280 673d
00000250: 9852 88bd 3757 bebd 0918 2abd 1a16 363b
00000260: 3507 073b 630e a73d 9b06 0c3e 14a9 983d
00000270: d9d8 61bd e85e 96bd 63f0 0f3e 0b9f 693b
00000280: 9f1d bcbd 6f6c 14bd 6e24 493d c45e 913e
00000290: 319f b93d 5085 8abd eff6 713e 0449 823d
000002a0: d995 d13c 5f76 2d3d f40b 41bd 0e7f 84bd
000002b0: 4e8c 82bd 627d 3cbd c610 1fbc ef84 243d
000002c0: 8053 b53c b537 be3d 8cf1 143e 9385 ca3d
000002d0: 58bf a63d 4153 debd 194f 883d cb9d c8bd
000002e0: ee64 4abe 4ba8 f0bd 7bc6 7c3e 6782 043e
000002f0: eab9 56bd e152 2bbd d8e4 763e 9736 7dbc
00000300: c0af 313d 22fb c43c 8f17 82bc 75e1 ba3d
00000310: 70c6 823d 7ccb 83bc 3c1a ea3d b8bf fc3d
00000320: 5cd6 8abd a825 933d 0c56 2b3b bb2d d33d
00000330: c357 2fbd 24e8 84bd c296 ba3d 4a67 b53d
00000340: f113 ea3b 9346 98bd f31f 01be 7086 6cbd
00000350: b716 70bc 03d3 f9bd 4602 44bc d9b3 b4bc
00000360: d094 5bbe 747e 7fbd 546d 3d3e dfe1 173e
00000370: c6e0 053d 82fe 05bd aad1 68bd db9e 043e
00000380: e38d 893c 6aa4 453d 3fdc 1e3e 11f4 9f3d
00000390: 1df0 a2bd 1ed8 19bd 4494 3d3e 7ca3 c23d
000003a0: eeab 37be b151 f43d a102 453e 878d eb3d
000003b0: 2d8b bbbd 6877 84bd 7c94 293e 6912 0e3e
000003c0: 03aa b8bb 79ea 91ba 2ba5 c53d 8d4c ad3d
000003d0: 523c 7cbd 87c4 d93d d5cb dfbc 6615 1b3e
000003e0: 65f8 ecbc 306b babb 2932 f43d 0647 15bd
000003f0: 1f86 10be 2a9c 60bc 31b8 bd3d c631 ce3c

network_body.linear_encoder.seq_layers.2.bias f4 [128]
0.052464187 -0.053634312 0.047693513 0.05526022 0.012387929 0.071019545 0.079567224 -0.005419852
0.019449936 -0.028768856 0.059276715 -0.03691162 0.029785175 0.03731676 -0.014138519 -0.0045386376
0.05560846 -0.07040279 0.037880205 0.025961934 -0.01058522 0.06315923 0.027936503 0.048337635
0.044105854 0.11541361 0.029412277 0.05619493 -0.017832093 -0.028353661 0.0411364 0.04106608
0.0065512205 0.07593755 0.019374602 0.124054015 -0.012322629 0.08735982 0.017568007 -0.042551715
0.064899124 -0.046675857 -0.02283172 0.043293364 0.10172774 0.06539052 0.0008020582 0.019952256
0.05368879 0.017925454 -0.002647994 0.049449407 -0.061657313 -0.09527341 0.069374256 0.06416554
-0.040336616 0.06295603 0.013430166 -0.03876847 0.022272825 0.039440878 0.03618842 -0.061716925
0.07830665 -0.038417857 0.079248734 -0.040569227 -0.024421414 0.07521912 -0.0037999821 0.051747214
0.032618325 0.020033773 -0.010494875 -0.009606413 -0.024071353 -4.3021206e-05 0.058903348 -0.01867699
-0.059325714 0.071222104 0.028027276 -0.017592361 0.07515432 -0.0038802237 0.108803585 0.00734961
-0.054237746 0.0890129 0.03458479 -0.026519133 0.08516567 0.04477841 -0.005515933 0.036147695
0.0064845504 0.022015411 -0.010791416 0.015931318 0.046982896 0.0081802085 0.032162935 -0.0128409425
0.029518042 0.036726974 0.052541953 0.100208 -0.031401634 -0.026332498 -0.033020698 0.086188436
0.011786196 -0.016541446 0.041235346 0.036252327 -0.021821138 0.03579597 0.06897858 -0.033681694
-0.039013967 0.052931048 0.011593739 -0.007870656 0.063499585 0.042021755 -0.028806869 -0.054961644
00000000: b0e4 563d a7af 5bbd 465a 433d 8a58 623d
00000010: bdf6 4a3c b272 913d 24f4 a23d 0499 b1bb
00000020: 7955 9f3c aaac ebbc 24cc 723d a430 17bd
00000030: 0a00 f43c 75d9 183d 3fa5 67bc dab8 94bb
00000040: b2c5 633d 572f 90bd 4628 1b3d 1fae d43c
00000050: a16d 2dbc a059 813d 18db e43c affd 453d
00000060: 57a8 343d f95d ec3d 04f2 f03c a82c 663d
00000070: 9c14 92bc f045 e8bc a47e 283d e834 283d
00000080: 9fab d63b 2585 9b3d 7cb7 9e3c 0810 fe3d
00000090: dae4 49bc b5e9 b23d c8ea 8f3c b54a 2ebd
000000a0: d5e9 843d 2f2f 3fbd 9609 bbbc 6254 313d
000000b0: a256 d03d 77eb 853d 3741 523a ea72 a33c
000000c0: c7e8 5b3d 67d8 923c f889 2dbb 768b 4a3d
000000d0: 618c 7cbd b51e c3bd 1714 8e3d 3969 833d
000000e0: 0238 25bd 17ef 803d 330a 5c3c b0cb 1ebd
000000f0: 8075 b63c c28c 213d 4f3a 143d e3ca 7cbd
00000100: 3d5f a03d 0b5c 1dbd 294d a23d eb2b 26bd
00000110: 6b0f c8bc 7b0c 9a3d 1f09 79bb e3f4 533d
00000120: cb9a 053d de1d a43c b2f2 2bbc 3764 1dbc
00000130: 4931 c5bc ab71 34b8 a344 713d 7d00 99bc
00000140: 85ff 72bd e5dc 913d 7599 e53c db1d 90bc
00000150: 82ea 993d 5a4b 7ebb 6ad4 de3d ffd4 f03b
00000160: 6628 5ebd 654c b63d c8a8 0d3d a73e d9bc
00000170: 576b ae3d 9169 373d 00bf b4bb 9b0f 143d
00000180: 5a7c d43b aa59 b43c 7bce 30bc 6582 823c
00000190: 2371 403d 4806 063c 48bd 033d d162 52bc
000001a0: d2cf f13c 066f 163d 3b36 573d da39 cd3d
000001b0: 009f 00bd 40b7 d7bc b640 07bd 9083 b03d
000001c0: e41a 413c ed81 87bc 65e6 283d 527d 143d
000001d0: 3ec2 b2bc cc9e 123d a444 8d3d d1f5 09bd
000001e0: 1ccd 1fbd 3ace 583d aaf3 3d3c edf3 00bc
000001f0: 120c 823d 011f 2c3d 62fc ebbc 761f 61bd

network_body.linear_encoder.seq_layers.2.weight f4 [128, 128]
0.1194156 0.008610589 0.010635381 0.05517518 0.08070844 0.071388945 -0.04378016 0.08175805
0.13252161 0.02744339 -0.009838641 0.07404149 -0.07172866 -0.14953524 0.013812503 0.0047580134
-0.05192036 0.1130597 0.1535038 0.02313334 0.1250498 0.065833785 -0.15665443 -0.07715019
-0.08863963 0.13856211 -0.12288156 -0.003433305 -0.0013506716 0.042549133 -0.12680976 -0.33464018
0.047664683 -0.077673264 0.10109269 -0.08443344 -0.097428165 0.013474761 -0.06479396 -0.10599243
0.12572257 0.22921571 0.10081461 -0.029118411 -0.06860184 -0.034974087 -0.049872816 0.09957233
-0.12687753 -0.22892372 0.047538448 0.13526051 0.026110645 0.0023418395 0.0081654675 -0.15335575
-0.094428375 -0.07590563 0.020494953 0.23438053 -0.24904792 -0.037503313 0.017952293 -0.2712095
0.066398285 0.015988462 -0.25773025 -0.03979645 0.2429592 0.09247171 -0.13993932 -0.12246787
-0.022015892 -0.037878357 -0.122066885 0.037188794 0.1267606 0.03577377 0.067760214 -0.12391563
0.001895889 0.05878079 -0.1456628 0.051766545 0.13029318 0.024961468 -0.005804244 0.08278995
-0.0708352 0.1224368 -0.15336728 0.15072322 -0.15183537 -0.053476244 0.24812137 -0.099486254
0.21154937 -0.010049547 -0.11087402 -0.08031703 0.084220596 -0.1835733 -0.02580069 0.01382219
0.058175296 -0.16578262 -0.15871029 0.010600507 0.1358205 0.10952871 0.009816631 -0.15868813
0.14014815 0.07707154 0.10678105 -0.10628124 -0.019431919 0.049566958 -0.14160396 -0.063500315
-0.03259639 -0.072889574 0.27628508 0.08856162 -0.23025581 -0.08448459 0.0424901 0.07852998
0.10833295 0.087923065 -0.069152966 -0.11168705 0.07391816 -0.18105319 -0.038191687 -0.0049000205
-0.0076115183 -0.050603878 0.018352147 -0.0014643128 -0.05799978 0.030025318 -0.18535672 0.022625215
-0.06393581 0.026425151 -0.22116132 -0.08584935 -0.1938892 0.031100906 0.09346173 -0.047872555
0.31138387 -0.11428016 0.0014978929 -0.060052868 -0.22133934 0.22216451 -0.1266069 0.21548238
-0.14107266 0.011245694 0.044127394 -0.0702716 0.045002908 -0.012020608 -0.104592375 -0.0746931
-0.15649451 -0.07481659 0.0017841754 0.012538843 0.038361605 0.21092689 0.18553802 -0.066028215
0.021825071 -0.14004132 0.049961712 0.043420546 -0.11199136 0.013449757 -0.04485269 0.0282601
-0.23247668 -0.12836103 0.07057561 0.04390586 -0.025962295 0.015575828 0.15661718 -0.14762297
0.098749146 -0.31927997 0.10810573 -0.18125832 -0.14488313 0.18701504 0.12130614 -0.06720322
-0.07014709 0.16132133 -0.076506756 0.040250815 -0.024341322 -0.027555136 0.034213908 -0.026163716
0.05157581 0.05073046 -0.08739549 0.03472179 0.0074674827 -0.1476472 0.028156122 0.10028963
-0.17095223 -0.05193001 0.042466406 0.011376211 -0.1499401 -0.04190282 -0.08322861 0.09537294
0.14171422 0.11568797 0.17110755 -0.07135949 0.04500041 -0.11882576 -0.12045348 0.20856732
-0.014403511 -0.2108594 -0.0632215 0.034813978 -0.21828002 0.11242689 0.019412413 0.071858376
0.06005342 -0.10761882 0.15669893 -0.000573627 -0.06851579 0.102504395 -0.1965678 -0.067844816
0.104254186 0.12782623 -0.15061398 0.29527184 0.047504693 -0.24326257 -0.0308679 -0.06851011
00000000: 2b90 f43d 6e13 0d3c 0540 2e3c 5fff 613d
00000010: 774a a53d 5e34 923d d352 33bd c470 a73d
00000020: bfb3 073e f6d0 e03c 4032 21bc 11a3 973d
00000030: 7ae6 92bd c41f 19be d64d 623c 1ce9 9b3b
00000040: 72aa 54bd d88b e73d 1a30 1d3e 2182 bd3c
00000050: 0e0d 003e ddd3 863d 056a 20be eb00 9ebd
00000060: b288 b5bd 3ae3 0d3e 54a9 fbbd 4d01 61bb
00000070: 0509 b1ba 0048 2e3d 6bda 01be f555 abbe
00000080: 0b3c 433d 2913 9fbd af09 cf3d 70eb acbd
00000090: 6b88 c7bd 3ec5 5c3c b2b2 84bd 8f12 d9bd
000000a0: 6bbd 003e 86b7 6a3e e477 ce3d bc89 eebc
000000b0: 1f7f 8cbd fd40 0fbd 7047 4cbd 94ec cb3d
000000c0: 2fec 01be fb6a 6abe adb7 423d bb81 0a3e
000000d0: fee5 d53c 8c79 193b 74c8 053c 4a09 1dbe
000000e0: aa63 c1bd 6974 9bbd 08e5 a73c 7301 703e
000000f0: 6b06 7fbe 139d 19bd b010 933c f9db 8abe
00000100: d3fb 873d 3cfa 823c 38f5 83be 9a01 23bd
00000110: 4cca 783e cf61 bd3d 414c 0fbe 6fd0 fabd
00000120: ac5a b4bc 5626 1bbd 34fe f9bd 4753 183d
00000130: 88cd 013e 8487 123d dec5 8a3d 7ac7 fdbd
00000140: 7b7f f83a 20c4 703d a128 15be 2809 543d
00000150: 936b 053e fe7b cc3c 8731 bebb c78d a93d
00000160: 0c12 91bd 25c0 fa3d 500c 1dbe 3057 1a3e
00000170: bb7a 1bbe e809 5bbd 8713 7e3e 73bf cbbd
00000180: 66a0 583e dba6 24bc eb11 e3bd 417d a4bd
00000190: d97b ac3d a4fa 3bbe f85b d3bc 7876 623c
000001a0: 3849 6e3d ebc2 29be f384 22be c0ad 2d3c
000001b0: 8714 0b3e 9750 e03d efd5 203c 247f 22be
000001c0: ff82 0f3e afd7 9d3d 06b0 da3d fba9 d9bd
000001d0: b02f 9fbc b906 4b3d a100 11be 740c 82bd
000001e0: cb83 05bd 2147 95bd 3d75 8d3e cb5f b53d
000001f0: 2ec8 6bbe 4206 adbd 190a 2e3d 53d4 a03d
00000200: aadd dd3d 0211 b43d 12a0 8dbd 2ebc e4bd
00000210: 6762 973d 0266 39be e36e 1cbd 5a90 a0bb
00000220: 0b6a f9bb 0346 4fbd 3e57 963c 2fee bfba
00000230: 2d91 6dbd a8f7 f53c 27ce 3dbe 8458 b93c
00000240: c7f0 82bd 8f79 d83c 1d78 62be c9d1 afbd
00000250: e48a 46be 54c7 fe3c dd68 bf3d 0316 44bd
00000260: b56d 9f3e b70b eabd f254 c43a fff9 75bd
00000270: c8a6 62be 187f 633e 3da5 01be 6aa7 5c3e
00000280: 5a75 10be dc3f 383c edbe 343d 8eea 8fbd
00000290: f854 383d 16f2 44bc 8734 d6bd b2f8 98bd
000002a0: 1940 20be 7139 99bd feda e93a b86f 4d3c
000002b0: 0f21 1d3d 38fd 573e aefd 3d3e cd39 87bd
000002c0: 7eca b23c fe66 0fbe a7a4 4c3d bed9 313d
000002d0: ba5b e5bd 5f5c 5c3c 74b7 37bd ba81 e73c
000002e0: 5e0e 6ebe 1371 03be f289 903d a2d6 333d
000002f0: e1ae d4bc c231 7f3c 4160 203e 7a2a 17be
00000300: fe3c ca3d aa78 a3be 8966 dd3d c89b 39be
00000310: 3e5c 14be df80 3f3e 5b6f f83d d8a1 89bd
00000320: 47a9 8fbd 6b31 253e 93af 9cbd 0ade 243d
00000330: 7467 c7bc 4fbb e1bc e223 0c3d 4a55 d6bc
00000340: 2841 533d beca 4f3d 68fc b2bd 7038 0e3d
00000350: c9b1 f43b d430 17be aba7 e63c a664 cd3d
00000360: 1a0e 2fbe 90b4 54bd 41f1 2d3d 4a63 3a3c
00000370: e689 19be 4ba2 2bbd c373 aabd e352 c33d
00000380: 881d 113e d0ed ec3d d136 2f3e ed24 92bd
00000390: 5a52 383d ec5a f3bd 50b0 f6bd ac92 553e
000003a0: b4fc 6bbc 87eb 57be 467a 81bd 1a99 0e3d
000003b0: cc84 5fbe 1240 e63d c806 9f3c 7c2a 933d
000003c0: 93fa 753d 4267 dcbd af75 203e 755f 16ba
000003d0: 0252 8cbd d3ed d13d 1249 49be 39f2 8abd
000003e0: 3883 d53d e1e4 023e 8d3a 1abe df2d 973e
000003f0: 4894 423d d319 79be aede fcbc 074f 8cbd

network_body.vector_processors.0.normalizer.running_mean f4 [172]
0.27601883 0.0 0.7239827 0.81071097 0.27314553 0.0 0.72685206 0.81787276
0.2821396 0.0 0.71785945 0.8058101 0.2519969 0.0 0.7480019 0.8338174
0.30069014 0.0 0.6993131 0.7923287 0.26048678 0.0 0.7395139 0.83421916
0.32982284 0.0 0.67017806 0.77435637 0.25238794 0.0 0.7476091 0.8428216
0.35475326 0.0 0.64524484 0.7626866 0.24316987 0.0 0.75682646 0.85397345
0.3654968 0.0 0.63450354 0.7627653 0.23290075 0.0 0.76710093 0.86517006
0.3752534 0.0 0.6247446 0.7666994 0.2468509 0.0 0.75314915 0.86151797
0.36750388 0.0 0.63249564 0.77810556 0.2313087 0.0 0.7686899 0.8715679
0.34098238 0.0 0.65901524 0.8006256 0.22494528 0.0 0.77505726 0.8767177
0.3331791 0.0 0.66682404 0.813457 0.21766537 0.0 0.7823354 0.87738496
0.32073215 0.0 0.6792679 0.82454294 0.23136833 0.0 0.76862836 0.8687706
0.3050115 0.0 0.69498754 0.8356331 0.23491897 0.0 0.76508707 0.8631096
0.24946542 0.0 0.75053483 0.8621788 0.21251212 0.0 0.7874881 0.8700884
0.23295848 0.0 0.7670418 0.87098503 0.21743049 0.0 0.7825675 0.86697435
0.22401612 0.0 0.7759841 0.8687582 0.20670319 0.0 0.79330283 0.8705876
0.22340356 0.0 0.77659786 0.8621843 0.20793718 0.0 0.7920607 0.8684005
0.22174372 0.0 0.77825713 0.8583433 0.19769764 0.0 0.8022979 0.8719656
0.21009468 0.0 0.7899059 0.8628554 0.19473954 0.0 0.80525744 0.87303054
0.19599576 0.0 0.8040061 0.8701897 0.19648707 0.0 0.8035129 0.8706058
0.19233906 0.0 0.80765784 0.8705177 0.20248494 0.0 0.797513 0.86566275
0.20312059 0.0 0.7968799 0.86413467 7.619284 0.49999213 49.245857 0.0
0.5760429 0.0 0.69242185 14.344331
00000000: 5752 8d3e 0000 0000 ee56 393f c18a 4f3f
00000010: bbd9 8b3e 0000 0000 fa12 3a3f 1c60 513f
00000020: 9a74 903e 0000 0000 a3c5 373f 9249 4e3f
00000030: bd05 813e 0000 0000 0d7d 3f3f 0f75 553f
00000040: 0ff4 993e 0000 0000 2f06 333f 0ed6 4a3f
00000050: 865e 853e 0000 0000 c850 3d3f 638f 553f
00000060: 8ade a83e 0000 0000 ca90 2b3f 383c 463f
00000070: fe38 813e 0000 0000 4f63 3f3f 28c3 573f
00000080: 38a2 b53e 0000 0000 c42e 253f 6e3f 433f
00000090: 8601 793e 0000 0000 61bf 413f 019e 5a3f
000000a0: 6622 bb3e 0000 0000 d36e 223f 9644 433f
000000b0: 897d 6e3e 0000 0000 ba60 443f c97b 5d3f
000000c0: 3721 c03e 0000 0000 43ef 1f3f 6946 443f
000000d0: 7bc6 7c3e 0000 0000 62ce 403f 718c 5c3f
000000e0: 7829 bc3e 0000 0000 3ceb 213f ed31 473f
000000f0: 30dc 6c3e 0000 0000 dcc8 443f 131f 5f3f
00000100: 3e95 ae3e 0000 0000 39b5 283f cdf5 4c3f
00000110: 0e58 663e 0000 0000 276a 463f 9270 603f
00000120: 7396 aa3e 0000 0000 fbb4 2a3f b83e 503f
00000130: ace3 5e3e 0000 0000 2247 483f 4d9c 603f
00000140: 0137 a43e 0000 0000 80e4 2d3f 3f15 533f
00000150: d2eb 6c3e 0000 0000 d4c4 443f c067 5e3f
00000160: 782a 9c3e 0000 0000 b4ea 313f 0dec 553f
00000170: 998e 703e 0000 0000 bfdc 433f c0f4 5c3f
00000180: dd73 7f3e 0000 0000 0d23 403f c0b7 5c3f
00000190: c79c 593e 0000 0000 d298 493f 1dbe 5e3f
000001a0: ab8c 6e3e 0000 0000 da5c 443f e0f8 5e3f
000001b0: 19a6 5e3e 0000 0000 5856 483f 08f2 5d3f
000001c0: 7b64 653e 0000 0000 e5a6 463f f066 5e3f
000001d0: 00aa 533e 0000 0000 e515 4b3f d4de 5e3f
000001e0: e7c3 643e 0000 0000 1ecf 463f 1cb8 5c3f
000001f0: 7ced 543e 0000 0000 7dc4 4a3f 7f4f 5e3f
00000200: c910 633e 0000 0000 dc3b 473f 63bc 5b3f
00000210: 4071 4a3e 0000 0000 6563 4d3f 2339 5f3f
00000220: 0f23 573e 0000 0000 4637 4a3f 17e4 5c3f
00000230: cd69 473e 0000 0000 5a25 4e3f ee7e 5f3f
00000240: 1db3 483e 0000 0000 58d3 4d3f c1c4 5e3f
00000250: e833 493e 0000 0000 05b3 4d3f 06e0 5e3f
00000260: 88f4 443e 0000 0000 aac2 4e3f 3fda 5e3f
00000270: 3658 4f3e 0000 0000 d029 4c3f 139c 5d3f
00000280: d8fe 4f3e 0000 0000 5200 4c3f ee37 5d3f
00000290: 2dd1 f340 f8fe ff3e c2fb 4442 0000 0000
000002a0: 8c77 133f 0000 0000 8f42 313f 6182 6541
